pretrainedmodels/LSTM_model_new.pth (torch, 801755 bytes, 9 tensors)

weight_ih_l0 f4 [512, 1]
-0.2106232 -0.67851233 -0.46347618 0.38860887 0.014369128 -0.049926404 -0.25378317 -0.13761663
-0.18490879 -0.16527964 0.1877885 -0.15020904 -0.69559115 -0.8649834 -0.06771534 -0.76272833
0.026552567 -0.029015765 -0.040050022 0.13037564 0.3250179 0.18326923 -0.16638657 -0.18032995
-0.07798435 -0.37591547 0.21612081 -0.39075914 0.41174266 -0.18697746 0.14655983 -0.104580045
-0.21218777 -0.080058314 -0.24536124 -0.4597542 0.03834783 0.7440595 0.25149992 -0.13070035
-0.4973947 -0.05137839 -0.22536707 -0.09622261 -0.19980606 -0.64643246 -0.62679076 -0.2872821
-0.49432325 -0.19103928 0.5250704 0.2529448 -0.60380274 0.17073712 0.2574822 -0.069465235
0.2903282 0.08873242 -0.6083645 0.21573529 -0.25445193 -0.31974518 -0.55094606 -0.40478367
-0.44362947 -0.40997505 0.25837016 0.22965452 0.08145495 0.49507225 -0.16207191 -0.2680864
0.11410168 0.42790172 -0.06642948 0.08378065 -0.1984178 0.14963286 0.17956193 -0.2412045
-0.21719088 0.02327469 -0.6611732 -0.1519764 0.044403523 0.068928264 0.07876747 0.07058768
-0.6473828 0.38002947 0.081030525 0.2526673 0.1474795 -0.056580424 0.27597472 -0.35787106
-0.12642841 0.084617846 0.16442065 -0.01329388 -0.75086176 0.8251549 0.015050751 -0.14203686
-0.090179935 0.30091664 -0.58984584 0.20268588 -0.14476547 0.009298318 -0.5101374 -0.026023436
0.22114667 0.26100415 0.124781266 -0.36656946 0.067508206 -0.054003984 -0.15805367 -0.16892046
-0.4981027 -0.10520893 -0.41865283 0.21988799 -0.6070579 -0.1597782 -0.09013827 0.8004333
0.19530728 -0.15256418 -0.22369099 0.30145383 -0.03684308 0.12233788 -0.01078842 -0.22127347
0.07134573 0.16054475 -0.110696375 0.00991293 0.23553304 0.43045515 0.59926724 0.39583382
-0.122127935 0.09792781 -0.01735407 -0.06636174 0.18313311 -0.21298376 0.17862414 0.027239252
0.23573466 -0.09616328 -0.13226478 0.39183307 0.001474218 0.3568792 0.33994555 0.04895086
-0.078738526 0.040042233 0.11732145 -0.041893605 0.3040903 -0.27946874 0.098293245 0.07665257
0.21242346 0.15314288 0.06032511 0.177588 0.02315147 -0.009749652 0.18835568 0.051526275
-0.107277095 0.37836525 0.027451776 0.26771358 0.21838634 0.15504685 -0.06026583 0.11021887
0.24118738 0.23977616 0.0260019 0.15907997 -0.115248 -0.14966573 -0.31622392 0.23382619
0.3017537 0.2808219 -0.29901174 0.0738171 0.16114457 0.1893603 -0.3085412 0.105153084
-0.050030507 -0.04835177 0.15335934 0.2553178 0.028630856 -0.13637458 0.22977805 0.018024694
0.050678663 0.3116782 0.19131547 0.28935838 0.3925057 0.12945716 0.2971783 -0.08165727
0.02892384 0.321039 -0.12010256 0.23013803 0.17453766 0.010987538 -0.16648816 0.4530616
0.31256866 0.027410869 0.06875002 0.2583752 0.013505271 -0.39195174 0.08065638 0.30749422
-0.19963363 -0.19113877 0.21461333 0.37010807 0.21340063 0.15316495 -0.03936397 0.0013848781
0.1669759 0.33750838 0.25706324 0.4322957 -0.08538298 0.013007715 0.3261288 -0.24399023
0.10647326 -0.01760219 0.6492487 0.25898302 -0.0008526726 0.073588565 0.04117178 -0.421199
00000000: 9cad 57be fcb2 2dbf c04c edbe bef7 c63e
00000010: 7e6c 6b3c a17f 4cbd deef 81be 60eb 0cbe
00000020: bb58 3dbe 113f 29be a14b 403e 66d0 19be
00000030: 4312 32bf 8d6f 5dbf 57ae 8abd 2a42 43bf
00000040: c584 d93c 78b2 edbc 7e0b 24bd 3181 053e
00000050: bf68 a63e eeaa 3b3e 3e61 2abe 6aa8 38be
00000060: 42b6 9fbd fe77 c0be c64e 5d3e 9511 c8be
00000070: efcf d23e 0577 3fbe c813 163e 102e d6bd
00000080: c047 59be 9df5 a3bd fa3f 7bbe e764 ebbe
00000090: 9d12 1d3d af7a 3e3f 99c4 803e 50d6 05be
000000a0: 85aa febe 2672 52bd a0c6 66be 5c10 c5bd
000000b0: f699 4cbe 997c 25bf 5c75 20bf a416 93be
000000c0: f017 fdbe cd9f 43be 046b 063f fb81 813e
000000d0: d192 1abf b6d5 2e3e b5d4 833e ca43 8ebd
000000e0: e6a5 943e 58b9 b53d c7bd 1bbf b6e9 5c3e
000000f0: 8647 82be a4b5 a3be cd0a 0dbf ce3f cfbe
00000100: 6723 e3be 40e8 d1be 1849 843e 8e2a 6b3e
00000110: dad1 a63d 1c7a fd3e 2ef6 25be 9f42 89be
00000120: 24ae e93d ef15 db3e 2e0c 88bd 3095 ab3d
00000130: 092e 4bbe 5b39 193e 15df 373e 50fe 76be
00000140: 4967 5ebe 90aa be3c a642 29bf b49f 1bbe
00000150: 78e0 353d 432a 8d3d d750 a13d 4690 903d
00000160: e1ba 25bf 3993 c23e 55f3 a53d 9c5d 813e
00000170: de04 173e e0c0 67bd 8f4c 8d3e e03a b7be
00000180: 7376 01be 1f4c ad3d e35d 283e 93ce 59bc
00000190: 7a38 40bf 5a3d 533f 6d97 763c 1c72 11be
000001a0: 42b0 b8bd bf11 9a3e 2300 17bf e38c 4f3e
000001b0: 663d 14be f957 183c 5d98 02bf 1a2f d5bc
000001c0: 4674 623e 56a2 853e 528d ff3d feae bbbe
000001d0: be41 8a3d 4833 5dbd d2d8 21be 7cf9 2cbe
000001e0: 5107 ffbe c877 d7bd aa59 d6be 512a 613e
000001f0: 2668 1bbf e59c 23be 6a9a b8bd 32e9 4c3f
00000200: a2fe 473e c939 1cbe 400f 65be 2858 9a3e
00000210: c5e8 16bd 488c fa3d eac1 30bc 8395 62be
00000220: b61d 923d d865 243e c8b4 e2bd d869 223c
00000230: 932f 713e 9e64 dc3e 9469 193f bbaa ca3e
00000240: 361e fabd 608e c83d 1f2a 8ebc aae8 87bd
00000250: 3f87 3b3e 6a18 5abe 3fe9 363e da24 df3c
00000260: 6d64 713e 41f1 c4bd 6b70 07be 589e c83e
00000270: 8c3a c13a dfb8 b63e 580d ae3e b280 483d
00000280: aa41 a1bd 5303 243d 3a46 f03d a198 2bbd
00000290: b9b1 9b3e 8716 8fbe f84d c93d 06fc 9c3d
000002a0: 8985 593e 7dd1 1c3e 7617 773d a1d9 353e
000002b0: 27a8 bd3c 01bd 1fbc 50e0 403e 370d 533d
000002c0: 18b4 dbbd 17b9 c13e 8ce2 e03c c111 893e
000002d0: aba0 5f3e 9ac4 1e3e 4ed9 76bd 6eba e13d
000002e0: d3f9 763e e287 753e f001 d53c dce5 223e
000002f0: 2507 ecbd f941 19be 1ae8 a1be 2270 6f3e
00000300: 767f 9a3e e3c7 8f3e 1118 99be 6b2d 973d
00000310: 1503 253e abe7 413e 1df9 9dbe 805a d73d
00000320: caec 4cbd 810c 46bd 3b0a 1d3e 04b9 823e
00000330: 428b ea3c c7a5 0bbe f04a 6b3e 86a8 933c
00000340: 6e94 4f3d 4994 9f3e 34e8 433e c826 943e
00000350: 82f6 c83e 6b90 043e c127 983e ed3b a7bd
00000360: b0f1 ec3c 395f a43e 55f8 f5bd 4ea9 6b3e
00000370: 00ba 323e 1305 343c df7b 2abe b1f7 e73e
00000380: 0009 a03e c28c e03c cfcc 8c3d c149 843e
00000390: 3645 5d3c e6ad c8be 2c2f a53d e26f 9d3e
000003a0: c26c 4cbe e2b9 43be 99c3 5b3e ce7e bd3e
000003b0: b285 5a3e 46d7 1c3e 1d3c 21bd cc84 b53a
000003c0: bbfb 2a3e e6cd ac3e cb9d 833e dd55 dd3e
000003d0: 46dd aebd 501e 553c 5bfa a63e 93d8 79be
000003e0: a70e da3d 7832 90bc 2a35 263f 6c99 843e
000003f0: e485 5fba 9ab5 963d bea3 283d 65a7 d7be

weight_hh_l0 f4 [512, 128]
0.017108664 -0.09624676 0.18494621 0.060813997 -0.0038604385 -0.07483478 0.09254113 -0.1888268
0.03024756 -0.16785282 -0.20879254 0.050634205 0.010286662 0.016518887 0.019927593 0.020496089
0.18685275 -0.06627478 0.09482187 0.024102364 -0.03096456 -0.11698831 -0.064766854 0.1229143
0.2820985 0.14132498 -0.19061464 0.21122001 -0.2717579 0.030784031 0.0414014 -0.0014036035
0.12483663 0.07339978 0.05442196 0.110171825 0.0039007927 0.19026756 -0.117481254 0.010908376
-0.13647339 0.025797486 0.0035018988 -0.07249528 0.14356734 -0.02715399 0.11523328 0.16358289
-0.01280424 0.035646603 0.15214786 -0.20664476 -0.1585693 0.27261537 -0.08495004 -0.053740308
0.22933674 0.07993107 0.030502317 -0.23320095 0.029217014 0.24715263 -0.0417691 0.050905205
0.00073182 -0.19598734 -0.0041222638 0.22692004 0.035006966 -0.18176897 0.17612945 0.06811656
0.2513097 -0.08253564 -0.05143366 -0.03420898 -0.06147911 0.10165211 -0.20397681 -0.05635266
-0.07231215 -0.16400151 -0.066683784 -0.05095416 0.020698661 0.07645358 0.039971728 0.12894039
-0.057013802 -0.1325912 0.032293502 -0.040828116 0.013240214 0.027543692 0.1875815 0.024676736
0.04280011 0.096132815 0.07800254 0.0757898 -0.0683167 -0.20565774 -0.00865145 0.096601084
-0.06284224 -0.050464943 -0.08906451 -0.091621384 0.08056708 0.07798698 -0.037011668 -0.007962974
0.18695413 0.18971115 0.0443388 0.08012071 -0.10156338 0.013208101 -0.06447 -0.24337663
0.018650137 -0.16828743 0.12570532 -0.011139367 0.068538114 -0.0076874066 0.12920177 -0.20568496
-0.2071785 0.16252808 -0.39354014 -0.28449064 -0.42141172 -0.015158875 -0.26867926 0.03301407
0.0033494458 0.40039578 0.21108319 -0.2570088 -0.2325192 0.558671 0.14031318 -0.5069943
-0.1452501 0.01428136 -0.35999605 0.05563841 -0.24309112 0.1984652 -0.14065146 0.07878686
-0.40809512 -0.4568548 -0.014855844 -0.45257834 0.038724 0.40897235 -0.440265 -0.09075991
-0.2573358 0.21417063 0.22556579 -0.005964208 -0.1405718 -0.3404146 0.54057705 0.3384911
0.49189925 -0.18338954 -0.22520281 -0.13945122 -0.4806102 0.38214907 -0.5410744 0.2247826
0.56983304 0.124463916 -0.19056137 0.3603141 0.10406109 -0.13313974 -0.0630934 0.0127093075
0.31883925 -0.13636218 -0.057641003 -0.25838506 0.2467082 0.21779718 0.63389707 0.124927714
-0.13052952 0.20065908 -0.12880856 -0.33443692 -0.3302551 -0.3128371 -0.34828943 -0.16710895
-0.014556005 0.15972766 0.27822518 0.12227034 0.16820459 -0.2272899 0.5160172 0.12687333
-0.118558 -0.13364169 0.20612454 0.3236434 0.20195673 -0.46367887 -0.11520917 -0.13215613
-0.29451528 -0.16480018 0.18829 -0.19697891 -0.23568362 -0.11124942 0.0012047557 0.13129662
-0.2788902 -0.13691622 0.2968707 -0.1910007 0.12672892 0.094625205 0.077811286 -0.42671394
0.20614234 0.17951109 0.53568447 0.12451952 0.14223035 -0.22930488 -0.19145988 -0.20246413
-0.45114422 0.12236167 -0.12699309 -0.40272933 -0.20533125 0.14388618 0.4534454 0.37695256
-0.36694857 0.42955187 0.15498975 -0.19393137 -0.17903861 -0.2706445 -0.2504497 0.21426536
00000000: 7827 8c3c 051d c5bd 8a62 3d3e 1918 793d
00000010: 69ff 7cbb fa42 99bd 3486 bd3d d05b 41be
00000020: bbc9 f73c 9ce1 2bbe b6cd 55be d065 4f3d
00000030: 6389 283c 9e52 873c 313f a33c 6ae7 a73c
00000040: 5456 3f3e 12bb 87bd f831 c23d 5272 c53c
00000050: 64a9 fdbc 9197 efbd 7ca4 84bd 7eba fb3d
00000060: 376f 903e 7fb7 103e 7c30 43be 0f4a 583e
00000070: da23 8bbe cb2e fc3c 8494 293d 1ef9 b7ba
00000080: 59aa ff3d a052 963d 90e9 5e3d c4a1 e13d
00000090: 71a4 7f3b 80d5 423e 039a f0bd 0cb9 323c
000000a0: aebf 0bbe 4055 d33c 1d80 653b 6878 94bd
000000b0: 5103 133e 0b72 debc 6dff eb3d 4682 273e
000000c0: e0c8 51bc 2c02 123d a6cc 1b3e af9a 53be
000000d0: fe5f 22be 3e94 8b3e 49fa adbd cc1e 5cbd
000000e0: 40d7 6a3e e7b2 a33d ffdf f93c 3bcc 6ebe
000000f0: 8558 ef3c 9415 7d3e 1316 2bbd fa81 503d
00000100: 9cd7 3f3a e8b0 48be 0e14 87bb ba5d 683e
00000110: 7763 0f3d a521 3abe 475b 343e b280 8b3d
00000120: aaab 803e 7208 a9bd 1aac 52bd b71e 0cbd
00000130: 85d1 7bbd fb2e d03d 4cdf 50be 0cd2 66bd
00000140: 6418 94bd 03f0 27be 8291 88bd 4fb5 50bd
00000150: 3d90 a93c b293 9c3d 65b9 233d f308 043e
00000160: 4e87 69bd fdc5 07be 3146 043d 623b 27bd
00000170: 7ced 583c 4fa3 e13c 5d15 403e de26 ca3c
00000180: 2b4f 2f3d 48e1 c43d ccbf 9f3d af37 9b3d
00000190: a0e9 8bbd f197 52be d0be 0dbc cad6 c53d
000001a0: 6fb3 80bd 54b4 4ebd 7467 b6bd fea3 bbbd
000001b0: 5a00 a53d a3b7 9f3d 8c99 17bd 2277 02bc
000001c0: e770 3f3e a443 423e 9a9c 353d 5416 a43d
000001d0: 7600 d0bd ca66 583c d908 84bd b937 79be
000001e0: 2cc8 983c 8a53 2cbe e5b8 003e e481 36bc
000001f0: b65d 8c3d a4e6 fbbb 784d 043e 149f 52be
00000200: 9a26 54be c36d 263e 187e c9be c2a8 91be
00000210: 47c3 d7be ee5c 78bc 5490 89be c339 073d
00000220: 6082 5b3b ad00 cd3e 3126 583e a896 83be
00000230: 8319 6ebe 1005 0f3f 42ae 0f3e 61ca 01bf
00000240: 71bc 14be 5efc 693c 6751 b8be 1ae5 633d
00000250: e1ec 78be 763a 4b3e f006 10be 015b a13d
00000260: d8f1 d0be dfe8 e9be ed65 73bc 59b8 e7be
00000270: 0f9d 1e3d d364 d13e 6a6a e1be 55e0 b9bd
00000280: 85c1 83be 8c4f 5b3e b8fa 663e 676f c3bb
00000290: 0ef2 0fbe d34a aebe 4263 0a3f b54e ad3e
000002a0: 38da fb3e 78ca 3bbe 919b 66be 4dcc 0ebe
000002b0: 8a12 f6be 0ba9 c33e da83 0abf 692d 663e
000002c0: 94e0 113f f0e6 fe3d 8522 43be 177b b83e
000002d0: fb1d d53d c955 08be 1d37 81bd b33a 503c
000002e0: e63e a33e 87a2 0bbe f918 6cbd 0c4b 84be
000002f0: 13a1 7c3e 3906 5f3e 1447 223f 1ada ff3d
00000300: 88a9 05be 9379 4d3e 64e6 03be 513b abbe
00000310: 3217 a9be 2f2c a0be fe52 b2be 9c1e 2bbe
00000320: 4f7c 6ebc a68f 233e 8873 8e3e df68 fa3d
00000330: d33d 2c3e afbe 68be b419 043f 15eb 013e
00000340: 89ce f2bd 5ed9 08be 5012 533e 96b4 a53e
00000350: bfcd 4e3e 5167 edbe c9f2 ebbd f053 07be
00000360: b5ca 96be 61c1 28be 18cf 403e d7b4 49be
00000370: 0c57 71be bcd6 e3bd e5e8 9d3a 9f72 063e
00000380: b2ca 8ebe c433 0cbe 70ff 973e b095 43be
00000390: 3ac5 013e dcca c13d 865b 9f3d 407a dabe
000003a0: fa16 533e c1d1 373e 9e22 093f 1704 ff3d
000003b0: d5a4 113e e6ce 6abe 0f0e 44be c252 4fbe
000003c0: 60fc e6be c198 fa3d 7a0a 02be 8a32 cebe
000003d0: 5b42 52be e656 133e ff29 e83e edff c03e
000003e0: afe0 bbbe 39ee db3e a2b5 1e3e f295 46be
000003f0: e655 37be ea91 8abe f13a 80be 6168 5b3e

bias_ih_l0 f4 [512]
-0.14203244 0.48209286 -0.03604272 -0.50590295 -0.04968554 -0.21096322 -0.13045096 -0.031928994
-0.32447153 0.044708584 -0.191344 -0.10526234 0.08192631 0.053999756 0.24691649 0.10002806
-0.09350675 -0.1734748 -0.08412992 -0.20248808 -0.050230127 -0.079134196 -0.19268504 -0.027469853
-0.14482525 0.01090186 -0.14284647 -0.20038235 -0.2960165 -0.08749893 -0.34755313 -0.14965367
0.013374553 -0.20773473 0.0017061258 0.32351664 -0.040460713 -0.1307023 -0.103592195 -0.054330442
-0.1285827 -0.23363213 -0.26140445 -0.19632506 -0.03529856 -0.008013664 0.12020596 -0.27143994
-0.15973552 -0.02604286 -0.1286916 -0.09352151 -0.18575934 0.15568066 -0.15726615 -0.319642
0.08914473 0.05315583 -0.071018316 0.086043656 0.07905041 -0.08249882 -0.016086973 0.025899421
-0.17343964 0.07908785 -0.07455519 -0.10200457 -0.17825674 -0.040936414 -0.16041222 -0.28448978
-0.09429725 0.008921594 -0.036556307 -0.16914137 -0.019627174 0.09598639 -0.031137064 -0.20471013
-0.20185107 -0.30160686 0.26212454 -0.08009765 -0.16317846 -0.27115503 -0.11392184 0.16432016
0.031275585 -0.18044992 -0.057897512 -0.12387193 -0.067439474 -0.05325504 0.041864023 0.21987903
0.028554467 0.29915103 -0.07016939 -0.041029695 0.15617605 0.05016764 -0.05869462 0.04660323
-0.076689474 -0.15526815 -0.048959628 -0.1616985 -0.18994617 -0.17641862 -0.15457724 -0.19576228
-0.035911653 -0.2100903 -0.07301676 -0.26504838 -0.18852478 -0.23648879 -0.30709845 -0.1096121
-0.0654904 -0.019278344 0.35484147 -0.13718489 0.016889742 0.01839382 -0.07366384 -0.16459814
-0.094567105 -0.035583362 -0.12655422 -0.15553276 -0.0010328527 -0.12782985 -0.21917368 -0.24223411
-0.19821942 -0.11617424 -0.07304583 -0.2353854 0.0061011473 -0.02476991 -0.1507566 -0.3103625
-0.18132278 -0.2661929 0.01635129 -0.26532355 -0.08979962 -0.15283343 -0.13506383 -0.0148288645
-0.16675232 -0.3368167 -0.15205476 -0.17419402 0.25238746 -0.28949517 -0.26819837 -0.08446638
-0.17598546 -0.10361601 -0.057907213 -0.30101237 -0.20766973 -0.04419088 -0.20746483 -0.1895806
-0.19651903 -0.10083173 -0.23117658 -0.07751444 -0.034359183 -0.1593435 -0.22021274 0.024337031
0.066961765 -0.13658327 -0.24503633 -0.10623071 -0.2410938 -0.051322293 -0.16363874 -0.10309221
0.246103 -0.10675143 -0.07001425 0.15677108 -0.046790466 0.19826724 -0.35339218 -0.2508747
-0.07779092 -0.14314215 -0.0048998552 -0.19657928 -0.34944382 0.008300476 -0.19253793 -0.2635017
-0.07383631 -0.03873342 -0.16587336 -0.087736405 -0.059903506 -0.31443185 -0.15201998 -0.19143137
-0.2525908 -0.27096075 -0.15366243 -0.041295383 -0.2168625 -0.10853079 -0.17084414 -0.22086602
-0.07283992 -0.044310674 -0.12844777 -0.038436387 -0.044453103 -0.0775252 -0.043498296 -0.11080319
-0.06703918 -0.21014522 -0.08612027 -0.20835565 -0.18607996 0.009884344 0.16361757 -0.011013962
-0.15760396 -0.17545493 -0.064287886 -0.06519167 -0.09188704 -0.15599495 0.013042348 -0.18329984
-0.09338994 -0.09282575 -0.06625347 -0.2701029 -0.3226404 -0.14688118 -0.076152675 -0.23258033
-0.14980039 -0.06868935 -0.09767829 -0.17321879 -0.08924547 -0.06258826 0.012708053 -0.037955407
00000000: f470 11be e0d4 f63e 88a1 13bd db82 01bf
00000010: 1183 4bbd be06 58be f094 05be fac7 02bd
00000020: 2221 a6be 5920 373d aeef 43be c893 d7bd
00000030: fbc8 a73d d92e 5d3d add7 7c3e 83db cc3d
00000040: 7880 bfbd 61a3 31be 4f4c acbd 0959 4fbe
00000050: 1bbe 4dbd 1c11 a2bd 3a4f 45be 7508 e1bc
00000060: 124d 14be b79d 323c 5846 12be 0831 4dbe
00000070: 7a8f 97be a432 b3bd 7cf2 b1be d03e 19be
00000080: f120 5b3c 6ab8 54be 15a0 df3a f9a3 a53e
00000090: 22ba 25bd d3d6 05be 2528 d4bd 9989 5ebd
000000a0: 2fab 03be 433d 6fbe ced6 85be 7009 49be
000000b0: 3995 10bd be4b 03bc 8b2e f63d 2dfa 8abe
000000c0: b591 23be d657 d5bc bbc7 03be 3588 bfbd
000000d0: b237 3ebe c06a 1f3e 610a 21be 1ea8 a3be
000000e0: 8391 b63d edb9 593d 0d72 91bd a837 b03d
000000f0: 2ee5 a13d 24f5 a8bd d4c8 83bc 062b d43c
00000100: 299a 31be d0f8 a13d 64b0 98bd c6e7 d0bd
00000110: ef88 36be f1ac 27bd 1a43 24be a5a8 91be
00000120: eb1e c1bd e12b 123c 11bc 15bd 6533 2dbe
00000130: 2bc9 a0bc 8394 c43d 2813 ffbc 889f 51be
00000140: 0cb2 4ebe 376c 9abe 3035 863e 3d0a a4bd
00000150: 4118 27be d5d4 8abe db4f e9bd 8b43 283e
00000160: d41a 003d ddc7 38be f125 6dbd 91b0 fdbd
00000170: b51d 8abd f521 5abd 9c79 2b3d f827 613e
00000180: 0feb e93c 532a 993e f8b4 8fbd c10e 28bd
00000190: 9dec 1f3e 957c 4d3d c569 70bd 07e3 3e3d
000001a0: 5f0f 9dbd 9dfe 1ebe e489 48bd 4b94 25be
000001b0: 4081 42be 15a7 34be 7f49 1ebe e875 48be
000001c0: 1918 13bd e921 57be d089 95bd 6cb4 87be
000001d0: a40c 41be 1e2a 72be 023c 9dbe 4f7c e0bd
000001e0: d51f 86bd 9eed 9dbc c8ad b53e 327a 0cbe
000001f0: 5b5c 8a3c a3ae 963c 11dd 96bd 6a8c 28be
00000200: 66ac c1bd dcbf 11bd 6e97 01be fb43 1fbe
00000210: c960 87ba d4e5 02be 116f 60be 380c 78be
00000220: 08fa 4abe c3ec edbd 0d99 95bd df08 71be
00000230: 22ec c73b 44ea cabc f05f 1abe d5e7 9ebe
00000240: aeac 39be 704a 88be 24f3 853c 7dd8 87be
00000250: dde8 b7bd 5e80 1cbe 2c4e 0abe c4f4 72bc
00000260: 1fc1 2abe 3d73 acbe 3eb4 1bbe eb5f 32be
00000270: ee38 813e b638 94be 4c51 89be b6fc acbd
00000280: 8835 34be a134 d4bd 1d30 6dbd 4b1e 9abe
00000290: 60a7 54be 7f01 35bd a971 54be 6b21 42be
000002a0: 493c 49be de80 cebd 8eb9 6cbe e4bf 9ebd
000002b0: 37bc 0cbd f12a 23be 737f 61be 745e c73c
000002c0: 4023 893d 7cdc 0bbe ceea 7abe 7d8f d9bd
000002d0: 4be1 76be 5337 52bd ea90 27be 0222 d3bd
000002e0: 6d02 7c3e 7ea0 dabd a263 8fbd 9988 203e
000002f0: 5ca7 3fbd 9106 4b3e d2ef b4be a672 80be
00000300: d950 9fbd db93 12be f78e a0bb 144c 49be
00000310: 4dea b2be b8fe 073c aa28 45be b2e9 86be
00000320: 7e37 97bd efa6 1ebd b5da 29be 25af b3bd
00000330: 615d 75bd 36fd a0be 20ab 1bbe 9606 44be
00000340: 9553 81be 5ebb 8abe af59 1dbe 5925 29bd
00000350: 3411 5ebe 6445 debd c4f1 2ebe b42a 62be
00000360: 192d 95bd 1c7f 35bd d087 03be 796f 1dbd
00000370: 7514 36bd 88c5 9ebd 452b 32bd c8ec e2bd
00000380: d64b 89bd 4f30 57be d35f b0bd 2f5b 55be
00000390: bf8b 3ebe f2f1 213c 5d8b 273e e873 34bc
000003a0: ef62 21be 75aa 33be 5ea9 83bd 3683 85bd
000003b0: 462f bcbd 24bd 1fbe 93af 553c f4b2 3bbe
000003c0: 3a43 bfbd 6d1b bebd e6af 87bd ed4a 8abe
000003d0: 1f31 a5be 0568 16be eff5 9bbd 8a29 6ebe
000003e0: 4665 19be 00ad 8cbd 8e0b c8bd 4460 31be
000003f0: 54c6 b6bd 462e 80bd 7035 503c 2177 1bbd

bias_hh_l0 f4 [512]
-0.07854603 0.43163022 -0.024952792 -0.5110371 -0.1547198 -0.16158397 -0.21691883 -0.0072492114
-0.4278527 0.01970313 -0.21545768 -0.0741889 0.0786357 -0.05450107 0.08202275 0.08312244
-0.13013625 -0.081273936 -0.19675441 -0.22250707 -0.19302812 0.006818912 -0.18025294 -0.09318013
-0.13859947 -0.09188793 -0.22810219 -0.24594957 -0.28417933 -0.19528995 -0.28389287 -0.07419062
0.039930355 -0.27228117 0.0103082955 0.22045545 -0.054891083 -0.205306 -0.048869 -0.02954493
-0.14241816 -0.15409061 -0.21612874 -0.16854428 -0.09170567 -0.05114529 0.042811364 -0.24580713
-0.19667472 -0.11305528 -0.1198155 -0.10863549 -0.23623233 0.15229131 -0.2638969 -0.26655766
0.10079356 -0.0210475 -0.016954312 0.0058537587 -0.03382253 -0.13789801 0.08180725 0.028554425
-0.056199554 0.0871764 -0.16296554 -0.11377622 -0.23972921 -0.0025772986 -0.109615065 -0.19868228
-0.15443078 -0.075854234 -0.057093963 -0.21548402 -0.12637836 0.03024344 -0.052437022 -0.16550398
-0.27180642 -0.25418207 0.09098493 0.022170022 -0.08975663 -0.14563142 -0.108111456 0.083719805
0.077038914 -0.1812946 -0.10551401 -0.15918766 -0.14790283 -0.038784474 0.0441044 0.17359856
-0.06844115 0.23137528 -0.22632794 -0.13696523 0.24490456 0.074256755 -0.038588654 -0.019065749
-0.09384255 -0.15510364 -0.04293995 -0.07058719 -0.16377558 -0.10823628 -0.21916658 -0.24620001
0.010543762 -0.29063547 -0.08871736 -0.13171385 -0.22741202 -0.22977057 -0.26669455 0.031149767
-0.107960135 0.11776222 0.40037093 -0.12990773 -0.038775682 -0.118405044 -0.07084503 -0.0995058
-0.021991853 -0.06872532 -0.117440626 -0.2221809 -0.032136954 -0.24373093 -0.1541818 -0.18264897
-0.14944822 -0.21513037 -0.1453759 -0.32125965 -0.14728284 -0.089146696 -0.070596114 -0.3078384
-0.16450804 -0.1696884 0.048474327 -0.3475963 -0.03148013 -0.095745996 -0.21307361 0.06656078
-0.08072385 -0.19101587 -0.26763436 -0.18208635 0.34576935 -0.13266324 -0.23331437 -0.15135768
-0.13954812 -0.1504928 -0.08674696 -0.27406338 -0.23829031 -0.05381964 -0.21374837 -0.12797792
-0.09663375 -0.1149097 -0.111867964 -0.12429312 -0.067933306 -0.20012756 -0.19383882 0.12681337
-0.018203618 -0.11301905 -0.351755 -0.058364335 -0.32732445 -0.0024574045 -0.23209001 -0.17858128
0.25225192 0.014600535 -0.05756015 0.014965523 -0.10613372 0.13235776 -0.2108832 -0.26391435
-0.2119362 -0.0017842752 -0.12601627 -0.17622021 -0.25319684 0.10480046 -0.123118825 -0.18273313
-0.15878336 -0.086582646 -0.08346038 -0.08407865 -0.06125719 -0.30539092 -0.074146084 -0.19826034
-0.24616481 -0.22539067 -0.12972924 -0.13118312 -0.07273043 -0.25408962 -0.07441524 -0.28012976
-0.13995701 -0.01526776 0.03610429 -0.037383568 -0.057044636 0.0032830324 -0.059483398 -0.22336021
-0.016967207 -0.20011364 -0.15140228 -0.22330047 -0.21813688 0.0052215355 0.0033640638 0.014321063
-0.2017347 -0.08499982 -0.05246585 -0.0697797 -0.030152582 -0.08978426 -0.09673759 -0.069316305
-0.20544928 -0.1632098 -0.020669423 -0.2588953 -0.19503465 -0.10810828 -0.13849698 -0.28452402
-0.23621148 -0.123697214 -0.03423258 -0.113700494 -0.07205525 -0.17239153 -0.0011518786 0.08920385
00000000: bedc a0bd a3fe dc3e cc69 ccbc 54d3 02bf
00000010: de6e 1ebe 4576 25be f81f 5ebe cb8a edbb
00000020: 820f dbbe 7568 a13c f0a0 5cbe 5af0 97bd
00000030: c10b a13d 843c 5fbd 8bfb a73d 193c aa3d
00000040: 7042 05be f372 a6bd fd79 49be e5d8 63be
00000050: 2aa9 45be 2e71 df3b 3a94 38be 39d5 bebd
00000060: 05ed 0dbe bd2f bcbd 9f93 69be 34da 7bbe
00000070: f47f 91be 17fa 47be 685a 91be 40f1 97bd
00000080: 038e 233d 7068 8bbe 20e4 283c 13bf 613e
00000090: 79d5 60bd bc3b 52be dc2a 48bd 3608 f2bc
000000a0: 11d6 11be eec9 1dbe da50 5dbe df96 2cbe
000000b0: 2fd0 bbbd b97d 51bd f85a 2f3d ddb4 7bbe
000000c0: 1965 49be 8789 e7bd d461 f5bd 497c debd
000000d0: e3e6 71be 41f2 1b3e 7f1d 87be 3f7a 88be
000000e0: db6c ce3d cf6b acbc c5e3 8abc e3d0 bf3b
000000f0: 7e89 0abd 2335 0dbe 8f8a a73d f8ea e93c
00000100: 8131 66bd 8a89 b23d 70e0 26be 8203 e9bd
00000110: 937b 75be e5e7 28bb dd7d e0bd 5e73 4bbe
00000120: 1a23 1ebe 7759 9bbd 5cdb 69bd d8a7 5cbe
00000130: 5469 01be 17c1 f73c 34c8 56bd e079 29be
00000140: 362a 8bbe 2724 82be 4f56 ba3d e89d b53c
00000150: 53d2 b7bd 6720 15be 8a69 ddbd 4a75 ab3d
00000160: 94c6 9d3d 4ba5 39be bb17 d8bd 1702 23be
00000170: d773 17be 78dc 1ebd d1a6 343d d2c3 313e
00000180: e02a 8cbd a4ed 6c3e 83c2 67be 9d40 0cbe
00000190: 43c8 7a3e ed13 983d 230f 1ebd c62f 9cbc
000001a0: 8630 c0bd 7dd3 1ebe cde1 2fbd 0490 90bd
000001b0: c9b4 27be fcaa ddbd 346d 60be db1b 7cbe
000001c0: bebf 2c3c 2cce 94be 72b1 b5bd ffdf 06be
000001d0: b2de 68be fa48 6bbe 308c 88be cc2d ff3c
000001e0: 341a ddbd 522d f13d 6bfd cc3e 8806 05be
000001f0: 40d3 1ebd 587e f2bd 3317 91bd b2c9 cbbd
00000200: 4228 b4bc dcbf 8cbd b684 f0bd 6483 63be
00000210: 0aa2 03bd 9a94 79be d5e1 1dbe 5508 3bbe
00000220: f408 19be 234b 5cbe 6cdd 14be 257c a4be
00000230: 50d1 16be 8b92 b6bd b294 90bd ff9c 9dbe
00000240: cc74 28be ccc2 2dbe 048d 463d 24f8 b1be
00000250: 4ff1 00bd 7a16 c4bd f82f 5abe 0551 883d
00000260: 8c52 a5bd aa99 43be 5f07 89be d874 3abe
00000270: ae08 b13e dfd8 07be f6e9 6ebe 82fd 1abe
00000280: b4e5 0ebe c91a 1abe 64a8 b1bd 0952 8cbe
00000290: 6002 74be fc71 5cbd dae0 5abe a50c 03be
000002a0: eae7 c5bd c755 ebbd 081b e5bd 648d febd
000002b0: 9e20 8bbd 3dee 4cbe af7d 46be 5ddb 013e
000002c0: c11f 95bc 8876 e7bd 3b19 b4be 710f 6fbd
000002d0: 1297 a7be 680c 21bb 01a9 6dbe 03de 36be
000002e0: 2a27 813e 1537 6f3c 31c4 6bbd f431 753c
000002f0: a35c d9bd cb88 073e c4f1 57be c81f 87be
00000300: ce05 59be 57de e9ba 690a 01be 1273 34be
00000310: 04a3 81be a0a1 d63d b925 fcbd 651e 3bbe
00000320: 1b98 22be 3e52 b1bd 47ed aabd 6d31 acbd
00000330: d2e8 7abd 335c 9cbe e7d9 97bd c204 4bbe
00000340: a112 7cbe d0cc 66be bed7 04be de54 06be
00000350: b1f3 94bd 0918 82be 0467 98bd 2b6d 8fbe
00000360: e450 0fbe a025 7abc 18e2 133d 831f 19bd
00000370: a3a7 69bd 2528 573b dda4 73bd 8ab8 64be
00000380: d0fe 8abc 97ea 4cbe 3309 1bbe e1a8 64be
00000390: 465f 5fbe 6a19 ab3b a077 5c3b e4a2 6a3c
000003a0: 8b93 4ebe 6314 aebd 6ee6 56bd a9e8 8ebd
000003b0: 8c02 f7bc cfe0 b7bd 5c1e c6bd b5f5 8dbd
000003c0: 4c61 52be 7820 27be ec52 a9bc ed8d 84be
000003d0: 2ab7 47be e067 ddbd 27d2 0dbe 22ad 91be
000003e0: 6ce1 71be f754 fdbd 7637 0cbd cedb e8bd
000003f0: b491 93bd 6887 30be a2fa 96ba 82b0 b63d

weight_ih_l1 f4 [512, 128]
0.23499067 0.087384365 -0.15366451 -0.06433007 0.22102796 -0.06829506 0.23864904 0.053031962
0.068896964 -0.15304694 0.09968559 0.19183974 0.3391799 -0.29265288 -0.35782525 0.039190292
0.111655734 0.030888377 0.27105817 0.09934818 0.009675656 0.10848762 -0.062296063 -0.3553821
0.23117854 -0.23285188 0.110574424 -0.06703697 0.19288677 -0.19111127 0.027307669 -0.07101911
-0.14654152 -0.21913448 -0.24915498 0.37188053 -0.1667508 -0.30004922 -0.2029431 -0.067970306
0.16107886 0.048853718 -0.11471371 0.18903704 0.2758932 -0.534314 0.06796572 -0.5551045
-0.44660038 -0.07851237 -0.09657671 -0.07310799 0.09812263 -0.106724344 0.08050911 -0.0095480345
-0.15866895 -0.22789866 0.12032296 0.13549803 -0.41193986 -0.173564 0.2001928 -0.19206716
-0.12963425 -0.08386566 -0.09976739 0.02263162 0.08191025 0.106912896 0.274457 -0.19341467
-0.22232454 -0.03516727 -0.13704301 -0.23870522 0.29871204 0.09418636 -0.09314516 0.13632002
-0.12223418 0.060215678 -0.1440994 -0.21376875 -0.14683183 -0.03697466 0.22769454 -0.1941327
0.5504707 0.11701845 -0.14542551 0.17171009 0.23308118 0.04789094 -0.0929802 -0.12349781
0.31489605 -0.058736425 0.018129112 0.2254296 -0.3125722 0.19627418 -0.08820298 0.2606477
0.062056866 -0.0060867984 0.0293091 -0.10422215 -0.43755445 0.023334492 0.5439306 0.120909885
-0.020500313 -0.18956332 0.08680645 -0.022224907 -0.26003468 0.04462795 -0.44398198 -0.24240912
0.00019941197 -0.05532931 0.073714666 0.22653766 0.17309971 0.31905338 0.28406936 0.13573924
-0.05834149 0.2298443 -0.1403669 0.0936848 0.10069279 0.052176293 0.19588727 0.10847614
-0.07240611 -0.020653972 0.27779505 0.20756844 0.21903071 -0.020033367 -0.2137024 -0.17402413
0.14343081 -0.12513387 0.22748832 0.056407444 -0.010616775 0.03239244 -0.6097143 -0.1466466
0.22887692 -0.043166503 0.04236625 0.12064212 0.357649 -0.016019432 0.030190319 -0.051641025
0.06758373 -0.06559419 -0.09329397 0.114514805 -0.05548867 -0.025135346 -0.051980536 0.16302936
-0.27884015 -0.00037616186 -0.30280563 -0.015105151 0.07802977 -0.40179917 0.16487548 -0.14727637
-0.25612596 0.20560747 -0.43203887 0.20643997 -0.11717752 0.016098408 0.069404595 0.04159649
0.0024928388 -0.39033425 -0.048668094 -0.025862308 -0.18045114 -0.08522626 0.06381672 -0.23210095
-0.08619419 -0.009426431 -0.29699275 -0.28049073 -0.08615352 -0.0030815245 0.21039243 -0.28374216
0.0049829385 0.028706616 0.012334972 -0.054609086 0.3958174 -0.031421814 0.10717683 0.2719139
-0.120812766 0.55393416 -0.031770036 0.21297672 0.06270446 0.16244768 0.127126 -0.12913379
0.34445447 0.10531109 0.06986876 -0.08029909 0.09045941 0.018746626 0.074476 0.10088086
-0.020754661 -0.05143912 0.09488726 -0.2922262 -0.20165443 0.12226388 0.08331916 -0.0046641193
0.027120095 0.12852368 -0.12217108 0.05805863 -0.111808546 -0.027824858 0.34295672 0.11349973
0.0743124 -0.24363568 0.116047986 0.19039348 -0.20229697 0.06348389 -0.023461662 -0.104640655
-0.115032166 0.06348911 0.13976698 0.07081721 0.033563532 0.28159598 0.22896951 0.2146251
00000000: 65a1 703e 93f6 b23d 3b5a 1dbe 7cbf 83bd
00000010: 2755 623e 48de 8bbd 6a60 743e 0b38 593d
00000020: da19 8d3d 56b8 1cbe f527 cc3d a371 443e
00000030: fda8 ad3e 99d6 95be df34 b7be 0086 203d
00000040: c3ab e43d 9f09 fd3c 23c8 8a3e 0f77 cb3d
00000050: a586 1e3c c22e de3d 282a 7fbd a5f4 b5be
00000060: 11ba 6c3e b970 6ebe d874 e23d ae4a 89bd
00000070: 1c84 453e acb2 43be 55b4 df3c 7872 91bd
00000080: fb0e 16be ca64 60be 7c22 7fbe 2067 be3e
00000090: b9c0 2abe 0da0 99be 51d0 4fbe 0434 8bbd
000000a0: dbf1 243e d61a 483d 06ef eabd ed92 413e
000000b0: e041 8d3e cdc8 08bf 9d31 8b3d 541b 0ebf
000000c0: cea8 e4be 18cb a0bd 03ca c5bd a4b9 95bd
000000d0: 84f4 c83d 4b92 dabd f6e1 a43d 5c6f 1cbc
000000e0: 1d7a 22be 445e 69be e26b f63d ffbf 0a3e
000000f0: c8e9 d2be c3ba 31be 57ff 4c3e 41ad 44be
00000100: d7be 04be c2c1 abbd d852 ccbd f265 b93c
00000110: 90c0 a73d 26f5 da3d a185 8c3e 7f0e 46be
00000120: 0ba9 63be 8e0b 10bd 0155 0cbe 246f 74be
00000130: c9f0 983e c7e4 c03d e4c2 bebd 7a97 0b3e
00000140: ea55 fabd b7a4 763d cb8e 13be 32e6 5abe
00000150: 155b 16be be72 17bd c228 693e b9ca 46be
00000160: a6eb 0c3f 5ea7 ef3d 6dea 14be c5d4 2f3e
00000170: d5ac 6e3e 4a29 443d 676c bebd 6bec fcbd
00000180: 0e3a a13e 9b95 70bd 8183 943c 04d7 663e
00000190: 7709 a0be 19fc 483e c4a3 b4bd 9e73 853e
000001a0: 572f 7e3d c473 c7bb a319 f03c 6c72 d5bd
000001b0: 2307 e0be fa27 bf3c 093f 0b3f 9a9f f73d
000001c0: 46f0 a7bc e31c 42be 94c7 b13d 0211 b6bc
000001d0: 4423 85be cccb 363d 9b51 e3be 193a 78be
000001e0: 3e19 5139 fda0 62bd b7f7 963d 7df9 673e
000001f0: 0d41 313e f75a a33e 8a71 913e 3aff 0a3e
00000200: 7cf7 6ebd 4e5c 6b3e 57bc 0fbe d1dd bf3d
00000210: 0538 ce3d cfb6 553d ac96 483e bd28 de3d
00000220: a849 94bd 8532 a9bc 273b 8e3e d28c 543e
00000230: 9649 603e 041d a4bc cdd4 5abe 6233 32be
00000240: 87df 123e 1823 00be b3f2 683e 7e0b 673d
00000250: fbf1 2dbc efad 043d 3d16 1cbf 872a 16be
00000260: b65e 6a3e 5ccf 30bd 3c88 2d3d 3713 f73d
00000270: c51d b73e 2f3b 83bc b051 f73c 8a85 53bd
00000280: 5769 8a3d 3f56 86bd e910 bfbd bd86 ea3d
00000290: 1648 63bd a4e8 cdbc 8be9 54bd 2bf1 263e
000002a0: 23c4 8ebe 9737 c5b9 5709 9bbe 987b 77bc
000002b0: 12ce 9f3d 9fb8 cdbe 1ed5 283e 9ecf 16be
000002c0: f122 83be c48a 523e 3334 ddbe 0065 533e
000002d0: c5fa efbd cfe0 833c ff23 8e3d 1561 2a3d
000002e0: e55e 233b e4d9 c7be 3258 47bd 31dd d3bc
000002f0: 2fc8 38be 1b8b aebd 57b2 823d dfab 6dbe
00000300: 9486 b0bd 5171 1abc 6f0f 98be 7b9c 8fbe
00000310: 4271 b0bd 67f3 49bb 1d71 573e a746 91be
00000320: eb47 a33b 232a eb3c 9f18 4a3c c7ad 5fbd
00000330: 94a8 ca3e 29b4 00bd 877f db3d 4c38 8b3e
00000340: af6c f7bd a1ce 0d3f 4c21 02bd 9216 5a3e
00000350: 326b 803d af58 263e 512d 023e a63b 04be
00000360: 565c b03e 57ad d73d 5a17 8f3d d973 a4bd
00000370: c842 b93d 8692 993c e086 983d a09a ce3d
00000380: ae05 aabc d4b1 52bd 4054 c23d ac9e 95be
00000390: 807e 4ebe 7c65 fa3d 3ca3 aa3d 78d5 98bb
000003a0: f62a de3c b69b 033e d534 fabd e3ce 6d3d
000003b0: e1fb e4bd f5f0 e3bc 0698 af3e 8c72 e83d
000003c0: 1931 983d a27b 79be 91aa ed3d 82f6 423e
000003d0: f026 4fbe d703 823d ac32 c0bc d74d d6bd
000003e0: fc95 ebbd 9406 823d 131f 0f3e 9d08 913d
000003f0: ea79 093d 592d 903e fc76 6a3e afc6 5b3e

weight_hh_l1 f4 [512, 128]
0.15283145 0.03888436 0.18831708 -0.012326101 -0.21765362 0.11962753 0.20764141 0.28543413
-0.20044571 -0.068269946 -0.18129542 -0.2629536 0.22983171 -0.058342565 -0.22816513 0.05365423
-0.19136359 0.31163418 0.024475072 -0.018363558 -0.14235039 0.15882355 0.027362255 -0.25877637
0.03796749 -0.0014492358 0.23879623 -0.22125153 -0.03699987 -0.0001487731 0.38284168 0.076227844
-0.11869966 -0.073927455 -0.00086377753 -0.070764005 -0.13957913 0.4247406 0.16872035 -0.33306345
0.33927622 0.13020888 0.090980306 0.14436074 -0.09387441 0.008786882 0.15171526 0.1642399
-0.06926176 -0.22354262 0.50015086 -0.09305219 -0.09132741 -0.00023927391 -0.41810557 0.16321899
-0.07640105 -0.23971592 -0.25930688 0.14932038 0.06883688 0.08601569 -0.1949855 -0.0046515716
0.11299175 -0.16177452 -0.32950866 0.15033726 0.24250773 0.017276194 0.067846105 -0.16830654
0.314298 -0.09375617 -0.17357329 0.02272021 0.10067659 -0.041355822 -0.013820295 -0.14062768
-0.04074126 -0.30013898 -0.35778627 0.0746595 -0.030405613 0.2481704 -0.13755 0.19200118
0.0037888119 0.3433474 0.15105057 -0.32328343 0.037835486 -0.22843176 -0.35295478 -0.15982018
0.14921787 -0.14142525 -0.062045824 -0.21483424 0.4395983 0.09366841 0.30138424 0.4580421
0.10801364 0.04836944 0.025481055 0.3702542 -0.0064724796 0.15552774 0.2131895 -0.024068331
-0.18608162 -0.09519185 -0.33939898 -0.03681116 0.017706268 -0.16490443 0.063244805 0.09873921
0.21950312 0.24921109 0.10603234 -0.12262301 -0.2720046 0.027920684 0.09278613 -0.07763359
-0.16936627 -0.022563815 -0.038514256 -0.010068442 0.17191151 0.5089749 -0.15792967 0.32387257
-0.05818498 0.21977066 -0.114928246 0.11985832 -0.08766279 0.07570894 -0.033225622 0.3996505
-0.15186465 0.17655884 0.10461096 -0.19810979 -0.463731 0.12895025 0.4322883 -0.34657618
-0.17333007 0.28910404 0.26829576 -0.44249204 0.022839388 -0.123108245 0.3798944 0.25088114
-0.22508982 -0.32117966 -0.17884594 0.29603165 -0.24067193 0.33052436 0.20298867 -0.10658611
0.46543515 0.14160252 -0.021462465 0.20818962 -0.1978932 0.39822245 0.22357924 -0.13375431
-0.09754015 -0.12468681 0.20170711 -0.39087537 0.2623805 0.31731564 -0.3755698 0.049261954
0.025143692 -0.43185166 -0.26114735 0.084558964 0.024574162 0.07396656 0.027878126 -0.09105212
0.24742374 -0.1231991 -0.2829929 0.036651444 0.2668103 -0.03435334 0.051035225 -0.1903182
-0.14317869 -0.020317473 -0.24390347 0.23588167 0.12445368 0.18048766 0.067270264 0.10343226
-0.055549294 -0.020547125 -0.19881341 0.13633932 0.047009867 0.06395873 0.15351531 0.29076824
0.13206686 0.59234065 0.3367002 -0.16795562 0.11047715 -0.07954174 -0.15022261 -0.15151903
0.14633475 0.20579095 0.11433542 -0.104829974 0.25714013 0.101234406 0.16273043 0.4592671
0.27748314 -0.21984802 -0.08838 -0.048719402 0.065136805 0.11109288 0.25933987 0.006732962
-0.01859607 -0.07826705 -0.16939862 -0.19828781 -0.016595647 -0.42754543 -0.020558054 0.29564512
0.34258386 0.59908646 0.11814824 0.08651635 -0.17581199 0.12210834 0.21123086 0.064393215
00000000: d97f 1c3e 3545 1f3d 31d6 403e 6af3 49bc
00000010: 97e0 5ebe 47ff f43d f39f 543e 6c24 923e
00000020: a441 4dbe 1dd1 8bbd 82a5 39be dba1 86be
00000030: 0159 6b3e 9df8 6ebd 1fa4 69be 8ac4 5b3d
00000040: d1f4 43be 848e 9f3e f27f c83c 2c6f 96bc
00000050: 4dc4 11be a4a2 223e cf26 e03c 567e 84be
00000060: cc83 1b3d 49f4 bdba 0087 743e c38f 62be
00000070: 2d8d 17bd faff 1bb9 d303 c43e 581d 9c3d
00000080: cf18 f3bd 4767 97bd 216f 62ba b8ec 90bd
00000090: d5ed 0ebe 9a77 d93e 07c5 2c3e 4b87 aabe
000000a0: 9db5 ad3e 7a55 053e e253 ba3d 4dd3 133e
000000b0: 3a41 c0bd dbf6 0f3c 3f5b 1b3e 812e 283e
000000c0: 1cd9 8dbd 5be8 64be e309 003f 2692 bebd
000000d0: dd09 bbbd 9ae5 7ab9 ef11 d6be e122 273e
000000e0: 2778 9cbd 1778 75be dfc3 84be 71e7 183e
000000f0: 5afa 8c3d fe28 b03d 47aa 47be 366c 98bb
00000100: 3868 e73d 38a8 25be 5cb5 a8be 03f2 193e
00000110: f253 783e ce86 8d3c e6f2 8a3d 8d58 2cbe
00000120: abeb a03e 3c03 c0bd 32bd 31be bc1f ba3c
00000130: 872f ce3d b964 29bd 856e 62bc b400 10be
00000140: 4fe0 26bd d1ab 99be c32f b7be 14e7 983d
00000150: 3115 f9bc 6220 7e3e e8d9 0cbe f59b 443e
00000160: b74d 783b 3bcb af3e 00ad 1a3e 6885 a5be
00000170: 62f9 1a3d 04ea 69be 7db6 b4be e7a7 23be
00000180: 92cc 183e c8d1 10be c323 7ebd 82fd 5bbe
00000190: 0713 e13e 39d5 bf3d 094f 9a3e 7e84 ea3e
000001a0: 4136 dd3d 091f 463d a5bd d03c f591 bd3e
000001b0: 1817 d4bb aa42 1f3e 594e 5a3e f32a c5bc
000001c0: 2e8c 3ebe f2f3 c2bd b4c5 adbe 4dc7 16bd
000001d0: bc0c 913c b5dc 28be 7e86 813d c837 ca3d
000001e0: 6dc5 603e 3131 7f3e 7c27 d93d c621 fbbd
000001f0: 3044 8bbe ebb9 e43c a806 be3d 5cfe 9ebd
00000200: 5a6e 2dbe c0d7 b8bc 20c1 1dbd 1bf6 24bc
00000210: 9209 303e 2e4c 023f 51b8 21be a0d2 a53e
00000220: 6053 6ebd 8f0b 613e 805f ebbd 4778 f53d
00000230: 8d88 b3bd 4a0d 9b3d 9717 08bd fe9e cc3e
00000240: 6882 1bbe d7cb 343e 453e d63d 4bdd 4abe
00000250: 266e edbe 890b 043e e454 dd3e 6f72 b1be
00000260: 707d 31be 7205 943e 105e 893e 518e e2be
00000270: ab19 bb3c 2d20 fcbd 8581 c23e 7e73 803e
00000280: f27d 66be a971 a4be 6423 37be 7691 973e
00000290: b472 76be 7d3a a93e 43dc 4f3e d249 dabd
000002a0: 844d ee3e 4000 113e 0dd2 afbc a92f 553e
000002b0: 84a4 4abe d0e3 cb3e f5f1 643e e4f6 08be
000002c0: 21c3 c7bd cc5b ffbd 4f8c 4e3e d120 c8be
000002d0: bd56 863e 3277 a23e af4a c0be e7c6 493d
000002e0: 25fa cd3c a91b ddbe 1bb5 85be 402d ad3d
000002f0: c14f c93c c87b 973d ab60 e43c 8979 babd
00000300: a65c 7d3e cf4f fcbd 72e4 90be d31f 163d
00000310: 5c9b 883e 16b6 0cbd 500a 513d c6e2 42be
00000320: 6f9d 12be d470 a6bc d5c1 79be f78a 713e
00000330: 92e1 fe3d c2d1 383e fec4 893d 4bd4 d33d
00000340: a887 63bd 7252 a8bc be95 4bbe 899c 0b3e
00000350: 6b8d 403d cbfc 823d 1e33 1d3e 93df 943e
00000360: 893c 073e a3a3 173f f863 ac3e 8ffc 2bbe
00000370: d841 e23d c8e6 a2bd f5d3 19be ce27 1bbe
00000380: c7d8 153e ddba 523e b028 ea3d 19b1 d6bd
00000390: dfa7 833e fc53 cf3d cea2 263e 0f25 eb3e
000003a0: 4512 8e3e d71f 61be 9300 b5bd ff8d 47bd
000003b0: 7266 853d aa84 e33d 32c8 843e 2ea0 dc3b
000003c0: c956 98bc 7a4a a0bd d576 2dbe f60b 4bbe
000003d0: 98f3 87bc 3ce7 dabe 5d69 a8bc cc5e 973e
000003e0: 2767 af3e bb5d 193f b4f7 f13d 7c2f b13d
000003f0: 0f08 34be f013 fa3d e74c 583e 97e0 833d

bias_ih_l1 f4 [512]
-0.3163709 -0.1850022 -0.22067845 -0.32930973 0.0046946453 0.06321157 0.17365167 -0.15553266
-0.09335238 -0.29560322 -0.0797172 -0.33938912 -0.19032317 -0.38072082 -0.073035255 -0.044280667
-0.124788545 -0.07024795 -0.25364953 0.33715042 -0.30724457 -0.08005571 0.023550175 -0.13108857
-0.1605562 -0.25671896 -0.16007832 0.014638802 -0.23571183 -0.015941277 -0.10482657 -0.16001181
-0.035013545 -0.07919097 -0.30208296 -0.2975107 -0.13167818 0.34230435 -0.20198755 -0.16937156
0.039291147 -0.19133048 0.09580415 -0.15374027 0.11421869 -0.0984087 -0.3691957 0.10321138
-0.2930433 -0.29255322 0.015922088 -0.03999275 -0.18326852 -0.03277965 -0.21364893 -0.2689162
-0.037050217 -0.04297444 -0.015201748 -0.091238126 -0.16334361 -0.15875581 -0.30159667 0.013675181
-0.23506317 0.02088128 -0.039731022 -0.059477933 -0.13636675 -0.13908765 -0.063426025 -0.34052268
0.18011717 -0.092675425 -0.091500096 -0.009057604 -0.051930595 -0.15104188 -0.20912929 0.18252419
0.21049283 -0.26871368 -0.10286231 0.06921537 0.10785371 -0.113612145 -0.06342018 -0.037338056
-0.17912674 -0.24827133 -0.055320088 -0.08128213 -0.011243304 0.16868298 -0.17362182 -0.14139552
-0.27912423 -0.14574358 -0.09645128 -0.14213 0.23252356 -0.025334524 0.039656535 -0.0807321
-0.093587026 -0.25801477 0.08180755 0.08806498 -0.26556537 -0.09255589 -0.08592738 -0.17383677
-0.26686153 -0.06337435 -0.15612993 -0.006455728 -0.12081611 -0.068872005 -0.29426825 -0.11629146
-0.06285948 -0.0072696833 -0.1854149 -0.1795592 -0.25749865 -0.11423949 -0.15839277 0.079620905
-0.032678336 -0.10098301 -0.16703169 0.023414364 0.06808897 0.15412827 -0.2476862 0.101580285
-0.087942995 -0.2415763 0.24470255 -0.09664282 -0.19357765 -0.10904497 0.44843763 0.16966204
0.09093015 -0.08846388 -0.029300468 -0.14894356 0.31778127 0.17408471 0.051731475 0.04541993
0.04157878 -0.22021955 0.029129028 0.03412378 -0.105962105 -0.21053803 0.055613298 0.14541392
0.07025189 0.004432187 -0.101043925 -0.23034684 0.14256454 -0.012072371 -0.15698674 -0.09438734
0.07881243 -0.14557503 -0.17046578 0.05283476 0.026366588 0.12790543 -0.25613955 -0.108580604
-0.02039098 0.13604839 -0.011132955 -0.05845549 -0.046031296 0.31726098 -0.107099816 -0.20301853
0.23102085 -0.067561366 0.1842566 0.14636776 -0.15982516 -0.10976048 -0.17091195 0.06904789
0.21843912 -0.083228424 0.14370817 -0.06112935 0.14981593 -0.08467672 0.11912261 -0.097832866
-0.106386684 0.16630144 0.19975314 0.20054401 0.15718476 0.014768417 0.16792375 -0.18629107
-0.27908254 -0.04373021 0.047531556 0.38461545 -0.24218524 0.037009396 -0.13755873 0.06264058
0.2284652 -0.2413238 0.020714944 0.17439501 -0.21723872 -0.09427561 -0.13203052 -0.15151459
-0.13686465 0.0894004 0.22887337 0.007444686 0.08959548 -0.19223166 0.03051463 0.09577166
-0.100739025 -0.15665157 -0.12877508 0.39566308 -0.22092772 0.17739746 0.060179282 0.02268273
-0.064709954 -0.0009922162 0.057686858 0.055994056 0.38335094 0.14222531 -0.16165929 0.15186086
0.17105246 0.22515026 -0.14223327 -0.03310359 -0.1250188 -0.22118725 0.091633715 -0.1536243
00000000: 5efb a1be 3771 3dbe 88f9 61be 499b a8be
00000010: 8ad5 993b 1175 813d bed1 313e f443 1fbe
00000020: 882f bfbd 4e59 97be c542 a3bd 69c4 adbe
00000030: 14e4 42be d7ed c2be 8293 95bd a55f 35bd
00000040: 2391 ffbd 28de 8fbd 5ade 81be fb9e ac3e
00000050: 294f 9dbe 40f4 a3bd 4cec c03c 153c 06be
00000060: d868 24be ab70 83be 92eb 23be 96d7 6f3c
00000070: 715e 71be 4897 82bc 50af d6bd 23da 23be
00000080: 5d6a 0fbd e02e a2bd 9eaa 9abe 5353 98be
00000090: a5d6 06be 8442 af3e d3d5 4ebe bd6f 2dbe
000000a0: c1ef 203d 23ec 43be f734 c43d 176e 1dbe
000000b0: 7deb e93d 808a c9bd 3807 bdbe 7d60 d33d
000000c0: c509 96be 89c9 95be 0a6f 823c 70cf 23bd
000000d0: beaa 3bbe f443 06bd c9c6 5abe 62af 89be
000000e0: f8c1 17bd f705 30bd c110 79bc 0edb babd
000000f0: 8c43 27be e290 22be e16a 9abe de0d 603c
00000100: 66b4 70be 380f ab3c ffbc 22bd 229f 73bd
00000110: baa3 0bbe fe6c 0ebe 81e5 81bd fd58 aebe
00000120: a370 383e 9dcc bdbd 6764 bbbd 5866 14bc
00000130: 2db5 54bd b9aa 1abe fd25 56be 9fe7 3a3e
00000140: 6f8b 573e d794 89be 7aa9 d2bd cac0 8d3d
00000150: 68e2 dc3d 7cad e8bd 70e2 81bd caef 18bd
00000160: 006d 37be d73a 7ebe 5197 62bd 3f77 a6bd
00000170: d635 38bc 3bbb 2c3e ebc9 31be fdc9 10be
00000180: 5fe9 8ebe ce3d 15be 4088 c5bd 878a 11be
00000190: a81a 6e3e 598a cfbc e46e 223d df56 a5bd
000001a0: 8eaa bfbd 831a 84be b78a a73d 6a5b b43d
000001b0: 2ff8 87be f18d bdbd b2fa afbd 4402 32be
000001c0: 13a2 88be 69ca 81bd 86e0 1fbe 928a d3bb
000001d0: 706e f7bd c40c 8dbd 54aa 96be 382a eebd
000001e0: 79bc 80bd 8636 eebb 67dd 3dbe 5ede 37be
000001f0: ddd6 83be 65f6 e9bd b731 22be 4910 a33d
00000200: b8d9 05bd 2ed0 cebd 5b0a 2bbe 7bcf bf3c
00000210: 3b72 8b3d cdd3 1d3e 74a1 7dbe 5309 d03d
00000220: 751b b4bd c75f 77be 4e93 7a3e acec c5bd
00000230: 3839 46be f852 dfbd 9e99 e53e e3bb 2d3e
00000240: 9639 ba3d 8d2c b5bd 8907 f0bc a984 18be
00000250: 3ab4 a23e 4343 323e 62e4 533d 400a 3a3d
00000260: 834e 2a3d 3c81 61be 00a0 ee3c 60c5 0b3d
00000270: a902 d9bd 4897 57be c5ca 633d 63e7 143e
00000280: 39e0 8f3d e13b 913b 1ef0 cebd 0be0 6bbe
00000290: 70fc 113e 32cb 45bc 22c1 20be 264e c1bd
000002a0: 6968 a13d 9f11 15be 958e 2ebe 4369 583d
000002b0: befe d73c a4f9 023e b924 83be 825f debd
000002c0: fc0a a7bc 4550 0b3e ff66 36bc 066f 6fbd
000002d0: 508b 3cbd 0870 a23e 2657 dbbd 17e4 4fbe
000002e0: bb90 6c3e 9d5d 8abd c3ad 3c3e 6ee1 153e
000002f0: 35a9 23be 1aca e0bd 8b03 2fbe fb68 8d3d
00000300: 81ae 5f3e aa73 aabd 3c28 133e c562 7abd
00000310: 5969 193e fd6a adbd 8ef6 f33d 995c c8bd
00000320: 43e1 d9bd ed4a 2a3e 168c 4c3e 695b 4d3e
00000330: 0bf5 203e 3bf7 713c 34f4 2b3e 16c3 3ebe
00000340: e8e3 8ebe 731e 33bd 73b0 423d 51ec c43e
00000350: 68ff 77be 2a97 173d 32dc 0cbe b449 803d
00000360: c8f2 693e 961d 77be 63b2 a93c 9b94 323e
00000370: d473 5ebe 9213 c1bd 0233 07be a426 1bbe
00000380: 3f26 0cbe 8f17 b73d c85d 6a3e 8df2 f33b
00000390: d67d b73d 60d8 44be d1f9 f93c ef23 c43d
000003a0: 4350 cebd 4569 20be 9ddd 03be 5a94 ca3e
000003b0: e03a 62be aea7 353e 8d7e 763d 22d1 b93c
000003c0: a786 84bd 400d 82ba 0e49 6c3d 065a 653d
000003d0: 9346 c43e 83a3 113e 038a 25be 6a81 1b3e
000003e0: 6028 2f3e ca8d 663e 99a5 11be a197 07bd
000003f0: ee04 00be e97e 62be 75aa bb3d b04f 1dbe

bias_hh_l1 f4 [512]
-0.35040742 -0.28490275 -0.18546927 -0.35079378 -0.012880358 -0.030583574 0.10672154 -0.15943544
-0.14037473 -0.24719767 -0.12217352 -0.3106231 -0.26006275 -0.3483631 -0.08153087 -0.046788447
-0.015000093 -0.11701997 -0.26968375 0.2744481 -0.28899217 0.024517775 -0.030703306 -0.062342886
-0.27060515 -0.25646648 -0.08792906 0.041862942 -0.18686531 -0.037411857 -0.08626664 -0.15884618
-0.053827863 -0.16729267 -0.26143137 -0.38341713 -0.09895488 0.34609413 -0.1700672 -0.32494682
0.024726398 -0.17498314 0.13997121 -0.21540998 0.06576567 -0.115699224 -0.36052367 0.0059711416
-0.26514244 -0.28556907 0.17386022 -0.031034017 -0.13894263 -0.048313875 -0.2527896 -0.23514761
-0.1764972 -0.058795758 -0.10264702 0.0023969419 -0.16858284 -0.22868723 -0.31184602 0.105656646
-0.13206078 -0.077032 0.057723213 -0.16299629 -0.25288138 -0.25825205 -0.20298617 -0.31965384
0.12823536 -0.15151717 0.028094431 0.010550757 -0.14805855 -0.20012224 -0.0917052 0.07973565
0.09503425 -0.27766886 -0.117066905 0.021526955 0.0947334 -0.007138104 -0.11833118 -0.1797727
-0.1374291 -0.15597904 -0.038581405 -0.035293262 -0.093615994 0.05854098 -0.1829992 -0.16664463
-0.18193471 -0.16035375 -0.1414029 -0.15608235 0.20406137 0.0960358 0.093238376 -0.02714181
-0.08352461 -0.25604287 -0.007523849 0.07251202 -0.28652203 -0.09804607 -0.17743924 -0.17337625
-0.21060629 -0.082070425 -0.08421992 -0.0073763835 -0.16778891 -0.07193764 -0.3204629 -0.18201499
-0.12488866 -0.13316044 -0.24192187 -0.10413313 -0.18662672 -0.06915951 -0.2506102 -0.039546233
0.007536056 0.022818305 -0.08089216 -0.0786043 0.15611163 0.19869201 -0.21170163 0.063568145
-0.049778264 -0.20367022 0.12545589 -0.08508948 -0.11905736 -0.14102481 0.38807222 0.14689113
0.24480303 -0.13946255 -0.079811096 -0.15867087 0.2582067 0.1782572 -0.013299543 -0.0377527
0.08652728 -0.1017309 0.006218846 -0.0003998419 -0.117675915 -0.107376106 0.007360426 0.15911202
0.08944642 0.011944448 -0.17202237 -0.26843303 0.19160895 0.015990134 -0.1965318 -0.13866967
-0.0069887773 -0.09408309 -0.14970611 0.08145781 0.116567165 0.13723896 -0.21955697 -0.08126448
-0.19157547 0.102479525 -0.14255303 -0.15846448 0.022768795 0.3046549 -0.01866985 -0.1821861
0.1419888 -0.09618367 0.117538415 0.09416528 -0.0704772 -0.039645698 -0.065256566 -0.035830658
0.12524596 -0.009361249 0.09946215 0.009160251 0.25261098 -0.09234812 0.053949956 -0.20322917
-0.08301187 0.25211924 0.25104287 0.038682353 0.16784193 -0.06811975 0.16807775 -0.040024415
-0.26988667 -0.06375543 0.078296624 0.42850512 -0.20899841 0.066367514 -0.25586566 0.16691539
0.32400453 -0.15657957 0.023249574 0.18320487 -0.15196712 -0.053508323 -0.13211225 -0.17342447
-0.23182769 0.22062796 0.26481336 -0.11877783 0.13004132 -0.08603212 -0.1359858 0.09744601
-0.12286796 -0.057024088 -0.15042938 0.27463457 -0.11843556 0.16489364 0.06970782 -0.06271118
-0.12221111 0.030655468 -0.071331665 -0.106962234 0.38979396 0.0667068 -0.18903525 0.21586838
0.2964451 0.23385954 -0.16563486 -0.16980216 -0.1571905 -0.20614968 0.017340794 -0.15154229
00000000: 9a68 b3be c6de 91be a8eb 3dbe 3e9b b3be
00000010: 2308 53bc 678a fabc d390 da3d 0b43 23be
00000020: 65be 0fbe 6321 7dbe 1c36 fabd fe09 9fbe
00000030: f226 85be a65c b2be a8f9 a6bd 3ea5 3fbd
00000040: f3c2 75bc 2ba8 efbd fd13 8abe 7684 8c3e
00000050: c8f6 93be 80d9 c83c 8085 fbbc 415b 7fbd
00000060: c28c 8abe 934f 83be 2714 b4bd 7a78 2b3d
00000070: 9f59 3fbe 2d3d 19bd 90ac b0bd 93a8 22be
00000080: 9b7a 5cbd c54e 2bbe 55da 85be 404f c4be
00000090: dba8 cabd 4033 b13e 1926 2ebe 6e5f a6be
000000a0: 048f ca3c c82e 33be 9d54 0f3e 6f94 5cbe
000000b0: 27b0 863d b7f3 ecbd 8f96 b8be 91a9 c33b
000000c0: c0c0 87be 1c36 92be 6a08 323e 0d3b febc
000000d0: fa46 0ebe c5e4 45bd a36d 81be 89ca 70be
000000e0: afbb 34be d2d3 70bd 9a38 d2bd 0316 1d3b
000000f0: fba0 2cbe fc2c 6abe 48aa 9fbe 8362 d83d
00000100: f13a 07be f4c2 9dbd 2d6f 6c3d 80e8 26be
00000110: ab79 81be 9d39 84be 9bdb 4fbe aba9 a3be
00000120: 2150 033e 5127 1bbe 4b26 e63c 15dd 2c3c
00000130: a99c 17be d8ec 4cbe f0cf bbbd 724c a33d
00000140: 51a1 c23d 9d2a 8ebe c6c0 efbd 4c59 b03c
00000150: 9603 c23d c2e6 e9bb 9e57 f2bd 5616 38be
00000160: 37ba 0cbe f8b8 1fbe 8907 1ebd ab8f 10bd
00000170: beb9 bfbd abc8 6f3d 2464 3bbe e4a4 2abe
00000180: 184d 3abe c633 24be eccb 10be 0dd4 1fbe
00000190: 77f5 503e 6bae c43d c3f3 be3d 8058 debc
000001a0: f30e abbd 0d18 83be 9f8a f6bb 2f81 943d
000001b0: 04b3 92be 61cc c8bd a2b2 35be 8b89 31be
000001c0: 2da9 57be 8a14 a8bd 7e7b acbd 97b5 f1bb
000001d0: dbd0 2bbe 0b54 93bd b713 a4be 2362 3abe
000001e0: a0c5 ffbd 365b 08be 5eba 77be c043 d5bd
000001f0: 131b 3fbe 80a3 8dbd fb4f 80be 3bfb 21bd
00000200: 05f1 f63b 74ed ba3c caaa a5bd 4bfb a0bd
00000210: badb 1f3e eb75 4b3e 50c8 58be 0430 823d
00000220: 4be4 4bbd ed8e 50be 8277 003e 6543 aebd
00000230: 58d4 f3bd cf68 10be 67b1 c63e a16a 163e
00000240: a5ad 7a3e 45cf 0ebe 0074 a3bd 9e7a 22be
00000250: ab33 843e 0e89 363e 54e6 59bc 93a2 1abd
00000260: 3735 b13d 4a58 d0bd 76c7 cb3b dfa1 d1b9
00000270: 1200 f1bd 01e8 dbbd ba2f f13b 43ee 223e
00000280: af2f b73d a5b2 433c a226 30be 0e70 89be
00000290: 2335 443e befd 823c a23f 49be 6cff 0dbe
000002a0: 1d02 e5bb a3ae c0bd 8f4c 19be 5ad3 a63d
000002b0: c4ba ee3d 5f88 0c3e 8bd3 60be fe6d a6bd
000002c0: 5c2c 44be c9e0 d13d 6cf9 11be 8344 22be
000002d0: a085 ba3c bafb 9b3e 83f1 98bc fe8e 3abe
000002e0: 8365 113e f2fb c4bd fbb7 f03d bad9 c03d
000002f0: 5a56 90bd 8763 22bd 3ca5 85bd 2bc3 12bd
00000300: 7a40 003e ed5f 19bc d0b2 cb3d e114 163c
00000310: 3a56 813e 0321 bdbd a1fa 5c3d 4f1b 50be
00000320: 2102 aabd c615 813e b188 803e 6371 1e3d
00000330: c1de 2b3e 5e82 8bbd 931c 2c3e a4f0 23bd
00000340: 962e 8abe 3592 82bd fb59 a03d 0665 db3e
00000350: ae03 56be b1eb 873d d300 83be deeb 2a3e
00000360: ece3 a53e 6556 20be e475 be3c 0f9a 3b3e
00000370: 459d 1bbe 8b2b 5bbd 6f48 07be 2f96 31be
00000380: 3d64 6dbe 4cec 613e 9e95 873e ca41 f3bd
00000390: 8d29 053e 9c31 b0bd dd3f 0bbe c691 c73d
000003a0: 32a2 fbbd 1792 69bd 290a 1abe e79c 8c3e
000003b0: 588e f2bd e1d9 283e f9c2 8e3d b86e 80bd
000003c0: d249 fabd 2d21 fb3c 5616 92bd 040f dbbd
000003d0: 1393 c73e 939d 883d 7592 41be 9a0c 5d3e
000003e0: a7c7 973e e078 6f3e 2f9c 29be 9ee0 2dbe
000003f0: 8cf6 20be e718 53be 480e 8e3c e72d 1bbe
